muenchausenRL/checkpoint.pth (torch_old, 21069 bytes, 6 tensors)

fc1.weight f4 [64, 8]
0.07505253 -0.8214591 -0.019446407 -1.6600229 -0.12308774 -0.110422485 0.43505967 -0.03017814
0.94616294 0.24914081 -0.041263897 -0.02188279 -0.4604373 -0.50343764 -0.66139936 0.23548955
0.125889 -0.074677914 -0.2884765 5.6400304 -0.13704772 -0.09692795 0.1468093 0.017109644
0.33051947 -0.21915318 0.56247264 0.6024267 -0.38340938 -0.54519373 -0.10574211 0.8032735
-0.1480574 0.07995794 0.0130220475 -1.0464423 -0.35543415 -0.49414527 -0.21640007 -0.35971186
-0.41563883 -1.1683222 0.070090584 -1.3203727 0.43614614 0.09363289 0.068502836 0.05880345
-0.3861963 1.6871167 1.4879801 -0.5881263 -0.258984 0.46301776 0.23055999 0.0011347563
-0.51699895 1.5322045 0.552494 -0.63128287 0.5682432 0.27806798 -0.13379481 -0.01576804
-0.3672291 -0.20878305 -0.4432966 -0.9987979 0.48928604 0.36007723 0.472701 0.16225077
0.00273579 -0.04273734 0.22079922 0.18522553 1.0703317 0.45791462 -0.5980517 -0.6187339
-0.77776474 -0.28819376 -0.3256783 -0.83164674 0.49739274 0.12891865 0.6641237 -0.06300557
-0.56996185 -0.6394148 -0.6207631 -0.46139795 0.3881614 0.22052898 0.5957265 -0.08681927
-0.14554204 -0.08935046 -1.9490541 -0.7408976 -1.1823378 0.6457921 -0.19089644 0.16768259
-0.353679 -2.5416918 1.0283105 -1.1822039 1.0073384 -0.3276452 0.067853495 -0.032655656
-0.77333283 -0.32081252 -0.43068898 -0.3458786 -0.016670633 0.21811067 0.43548045 0.4514034
0.29741338 0.9676682 -0.22576605 -1.2251935 -0.5204103 -0.27243668 0.18550111 -0.34779415
0.37815532 -0.79460543 0.909911 -0.30133927 0.8527623 0.35170555 -1.0256227 0.20796104
-0.034208134 -0.81369585 -0.15065044 -0.12683406 -1.0480697 -0.090575136 0.27329835 -0.0025211943
0.00078895775 -0.084351294 -0.3437176 -0.5648943 0.76947814 0.45782793 0.042679574 0.48069367
-0.3649762 1.7413378 0.6278367 -0.83911407 0.5562766 -0.2305039 0.19388737 0.014640137
-0.14804666 0.09005386 -0.5673617 -0.45898402 0.1683467 -0.6516725 0.31845593 0.36319122
-0.36553255 -2.995009 -0.49190253 -0.4487382 -0.44557905 0.3633315 0.1636248 0.20032564
-0.3791015 0.3358127 0.18361196 0.39490432 -0.28210267 0.43390518 0.7815054 0.36057588
0.08727089 -4.260703 0.043980144 -0.110675156 -0.8007396 -0.01826176 0.543832 -0.09481552
-0.7258139 0.48144704 0.2053551 0.8090291 0.4782418 0.1940045 -0.26711768 -0.04939735
-1.3266472 0.25084212 -0.81853426 0.9173923 0.689476 -0.16648282 -0.06045793 -0.28409413
-0.024969285 -0.32750207 -0.5741719 -0.77656126 0.96785533 0.25930747 0.14634001 -0.35361058
0.4972646 -1.6520426 -0.5598837 0.09879621 -0.32614592 -0.6028089 0.1324298 0.20500368
0.97289103 0.265006 0.23619692 0.5012313 -0.5066729 -0.009733151 0.03987563 0.14742543
-0.08947891 -0.025890093 0.13020714 0.8997473 -2.532953 0.010306411 0.4094675 0.21833189
0.5786894 -0.0812133 0.15098722 -0.01594803 -0.17001854 0.15650356 0.64715475 0.07232141
0.4440717 -0.546579 0.019262344 0.13765348 0.5261344 -1.5136377 -0.41246536 -0.8211096
00000000: 24b5 993d 254b 52bf 124e 9fbc a17b d4bf
00000010: 6d15 fcbd 2f25 e2bd 24c0 de3e 2638 f7bc
00000020: bc37 723f c51e 7f3e 5504 29bd 8943 b3bc
00000030: 70be ebbe 4ae1 00bf 7851 29bf 2c24 713e
00000040: 0ce9 003e bcf0 98bd 31b3 93be 217b b440
00000050: 3d56 0cbe 2982 c6bd 2d55 163e 8629 8c3c
00000060: d939 a93e b169 60be 35fe 0f3f a338 1a3f
00000070: 3c4e c4be d191 0bbf 528f d8bd 55a3 4d3f
00000080: 5c9c 17be fdc0 a33d 6d5a 553c d2f1 85bf
00000090: 77fb b5be 9c00 fdbe fb97 5dbe 272c b8be
000000a0: 9dce d4be 958b 95bf a78b 8f3d f901 a9bf
000000b0: 8c4e df3e 9ac2 bf3d 374b 8c3d e3db 703d
000000c0: 85bb c5be 71f3 d73f 2276 be3f 728f 16bf
000000d0: 8d99 84be aa10 ed3e eb17 6c3e 1abc 943a
000000e0: 0b5a 04bf 471f c43f 3f70 0d3f c19b 21bf
000000f0: 6378 113f ed5e 8e3e 8201 09be fa2b 81bc
00000100: 7405 bcbe 39cb 55be c6f7 e2be 38b1 7fbf
00000110: b383 fa3e 0b5c b83e de05 f23e 1125 263e
00000120: f14a 333b 590d 2fbd 3119 623e c3ab 3d3e
00000130: a100 893f c973 ea3e eb19 19bf 5865 1ebf
00000140: 971b 47bf 228e 93be 4ebf a6be cde6 54bf
00000150: 43aa fe3e 4003 043e 0304 2a3f 1009 81bd
00000160: 05e9 11bf b0b0 23bf 55ea 1ebf 5a3c ecbe
00000170: 17bd c63e 59d2 613e 8881 183f 4dce b1bd
00000180: f908 15be 60fd b6bd 9b7a f9bf 77ab 3dbf
00000190: d856 97bf a252 253f 5b7a 43be fcb4 2b3e
000001a0: 6a15 b5be 14ab 22c0 ae9f 833f 7552 97bf
000001b0: 77f0 803f 1dc1 a7be c6f6 8a3d f0c1 05bd
000001c0: 24f9 45bf 8a41 a4be 4483 dcbe 0017 b1be
000001d0: da90 88bc 6758 5f3e 4bf7 de3e 591e e73e
000001e0: 9146 983e 1ab9 773f 372f 67be 24d3 9cbf
000001f0: 9c39 05bf d27c 8bbe 01f4 3d3e 1312 b2be
00000200: 939d c13e 436b 4bbf edef 683f 2449 9abe
00000210: a14e 5a3f c012 b43e 9b47 83bf bdf3 543e
00000220: d41d 0cbd 5f4e 50bf 1c44 1abe cae0 01be
00000230: 2627 86bf 757f b9bd c3ed 8b3e 9f3a 25bb
00000240: 0fd2 4e3a 5fc0 acbd c1fb afbe ea9c 10bf
00000250: 85fc 443f 6c68 ea3e c7d0 2e3d 7b1d f63e
00000260: 29de babe 28e4 de3f e8b9 203f 2ed0 56bf
00000270: 2568 0e3f 3709 6cbe 698a 463e 2fdd 6f3c
00000280: 8b99 17be 286e b83d 9e3e 11bf f4ff eabe
00000290: 1463 2c3e 02d4 26bf a80c a33e 33f4 b93e
000002a0: 1527 bbbe 3aae 3fc0 a6da fbbe 03c1 e5be
000002b0: f022 e4be 9606 ba3e 428d 273e 2a22 4d3e
000002c0: 9819 c2be a4ef ab3e c604 3c3e e630 ca3e
000002d0: c36f 90be d228 de3e bd10 483f 679d b83e
000002e0: 15bb b23d ae57 88c0 8624 343d a8a9 e2bd
000002f0: 45fd 4cbf b099 95bc 9338 0b3f a42e c2bd
00000300: f1ce 39bf 3a80 f63e 9b48 523e 881c 4f3f
00000310: 1cdc f43e 1ea9 463e a6c3 88be e054 4abd
00000320: 93cf a9bf 616e 803e 768b 51bf 39da 6a3f
00000330: 8081 303f 797a 2abe bca2 77bd c974 91be
00000340: 638c ccbc 5aae a7be eefc 12bf b8cc 46bf
00000350: 5ec5 773f f3c3 843e 28da 153e 720c b5be
00000360: 7799 fe3e 2276 d3bf 8a54 0fbf ab55 ca3d
00000370: 99fc a6be af51 1abf ad9b 073e 7cec 513e
00000380: 630f 793f deae 873e 9bdd 713e b250 003f
00000390: 51b5 01bf cb77 1fbc a154 233d b1f6 163e
000003a0: b840 b7bd 7617 d4bc 0555 053e d755 663f
000003b0: e71b 22c0 39dc 283c b9a5 d13e 6592 5f3e
000003c0: fd24 143f 2953 a6bd 659c 1a3e 71a5 82bc
000003d0: 5719 2ebe 7842 203e efab 253f 3f1d 943d
000003e0: 5e5d e33e 9aec 0bbf 10cc 9d3c 09f5 0c3e
000003f0: beb0 063f e1be c1bf a92e d3be 3d34 52bf

fc1.bias f4 [64]
-0.33459774 0.20012285 0.11889586 -0.3199009 0.46994454 -0.19303039 0.3931652 0.5547915
-0.3537158 0.026615946 -0.19052182 -0.23854445 0.04073507 0.3997836 0.17351672 0.11185649
0.7496386 -0.61056256 -0.42260095 0.7689358 0.35910097 1.0096152 0.13379477 0.49267355
0.23906454 0.20996673 -0.68512034 1.0313983 -0.10618463 0.16385277 0.06406076 0.50260615
-0.5776185 0.42676 -0.32918677 -0.2621455 -0.108544864 0.30791664 -0.4520796 -0.22042422
-0.67842877 1.0461627 0.32731116 0.31234556 -0.2960178 -0.20574768 0.1233233 0.055017833
-0.4828366 -0.25431558 0.21839175 0.3659747 -0.33652946 -0.23247309 -0.29160574 0.26007998
0.07695488 -0.028876724 -0.3667602 -0.47245583 -0.18823119 0.29301342 0.301825 -0.27437738
00000000: 6550 abbe 01ed 4c3e ac7f f33d 0dca a3be
00000010: 929c f03e c2a9 45be f34c c93e d106 0e3f
00000020: 3d1a b5be af09 da3c 2718 43be ff44 74be
00000030: d1d9 263d 70b0 cc3e 5eae 313e 0415 e53d
00000040: 51e8 3f3f d44d 1cbf 275f d8be fad8 443f
00000050: 15dc b73e 123b 813f 7f01 093e b53f fc3e
00000060: 56cd 743e 8501 573e 0c64 2fbf dc04 843f
00000070: 5477 d9bd 05c9 273e 4a32 833d ccaa 003f
00000080: cede 13bf 4980 da3e 2b8b a8be ef37 86be
00000090: c54c debd 40a7 9d3e fa76 e7be e3b6 61be
000000a0: 82ad 2dbf a9e8 853f 5495 a73e c2eb 9f3e
000000b0: a58f 97be 85af 52be ed90 fc3d 615a 613d
000000c0: 5c36 f7be a735 82be 16a2 5f3e 0961 bb3e
000000d0: 974d acbe 6d0d 6ebe 594d 95be 3429 853e
000000e0: 859a 9d3d e18e ecbc fec7 bbbe bbe5 f1be
000000f0: adbf 40be db05 963e ce88 9a3e 317b 8cbe

fc2.weight f4 [64, 64]
-0.20325406 0.36145267 0.4749216 0.15506893 -0.010981578 0.715283 0.119750105 0.2053719
0.093663245 0.43321508 0.28157204 -0.102845326 -0.7752833 -0.897981 -0.016068911 0.22919995
-0.038012672 0.63231397 0.15103005 0.16987543 0.09798851 -0.20547035 0.115040794 -0.07696928
0.2761028 1.0216466 0.52318484 -0.058886092 0.06144233 0.18754324 0.03459401 -0.21360295
0.30183032 -0.13023472 0.05388823 0.38542244 0.48571187 0.13742927 0.8914922 -0.09424823
0.56281406 0.05851135 0.61271316 -0.3347054 0.25711605 0.17637195 -0.34857818 0.12344835
0.28670302 0.42440957 0.3646494 0.347062 -0.003955807 0.25011694 -0.06532138 0.1110948
-0.5105382 0.3770946 0.0381434 0.20787513 0.04595066 0.03940598 0.3998758 0.48420757
0.083368465 -0.030148242 -0.00063104933 0.035334777 -0.097053185 0.10078511 -0.091109455 -0.09246281
0.030132458 0.034830853 0.0014643669 0.04329413 0.049805343 -0.017073488 -0.069912 0.027776819
-0.11891954 0.088361725 -0.11709806 -0.051420137 -0.08206536 0.005836755 0.020800084 -0.08353016
0.10532376 -0.043193996 0.01460506 -0.10766273 -0.019677155 -0.027805014 0.037055805 -0.10603153
-0.13101457 -0.092605874 -0.11319712 -0.039367486 0.048814945 0.07127964 -0.0709837 0.048324957
-0.12171367 0.07170821 -0.02832451 -0.020754546 0.019561796 0.09574081 -0.10895461 0.05361609
0.099771656 0.06253955 0.044701442 0.076109245 -0.033851266 -0.09287824 0.022207208 0.071469255
-0.13127854 -0.09829682 -0.025117442 -0.073884875 0.038400933 -0.14506093 0.09820446 -0.14301996
-0.030324286 0.36564174 0.7494876 0.6290505 0.06037593 1.1475114 0.47466296 0.20659006
0.44109154 0.5375674 0.37933537 0.24421145 -0.5309911 -0.7866352 0.07452581 0.4244797
0.0031381638 0.8051809 0.28531593 0.26346615 0.07453674 -0.093937986 0.15565874 -0.07204869
0.23913512 1.0240495 0.8749445 -0.1992362 0.37008953 -0.25892335 0.2250236 0.0487127
0.22845784 0.022166649 0.20539074 0.54305434 0.3735057 0.25188145 0.85678375 0.12271023
0.7945394 0.07068922 0.45511633 0.08526599 0.13224259 0.42410335 -0.51308155 0.30822444
0.36149302 0.2746898 0.35086897 0.08478384 0.23526679 0.47837147 -0.13309245 -0.036255985
-0.7728822 0.45650873 0.07718181 0.6399321 0.23068443 -0.03514085 0.20769459 0.2235365
0.1433107 0.46068123 0.81602067 0.5307323 0.026950063 0.9388134 0.30943674 0.20150533
0.37557897 0.7289346 0.38820523 0.2053079 -0.42642188 -0.6118123 0.024311015 0.3868797
-0.4205038 0.5943813 0.3557853 0.09305685 0.14308883 -0.23736005 0.30843613 -0.341844
0.48153085 1.0192634 0.898942 -0.106657125 0.21431518 -0.2790497 0.097507 -0.12925437
0.2967857 0.07290949 0.008188995 0.6021967 0.6037083 0.2451049 1.0920975 0.20078199
0.8163533 0.04711335 0.5038337 0.049989417 0.28869882 0.2529438 -0.3070126 0.42141995
0.5320551 0.47978872 0.52612364 0.27074623 0.4191865 0.50353235 -0.072405964 -0.12157719
-0.31337276 0.32071427 -0.031763937 0.7547846 0.23329082 0.033750176 0.48058298 0.5648257
00000000: d521 50be 5310 b93e ed28 f33e 64ca 1e3e
00000010: 14ec 33bc c91c 373f 8b3f f53d 034d 523e
00000020: 84d2 bf3d 5ece dd3e 362a 903e 92a0 d2bd
00000030: f778 46bf 15e2 65bf f3a2 83bc 64b3 6a3e
00000040: 2db3 1bbd 54df 213f 9fa7 1a3e d3f3 2d3e
00000050: 33ae c83d d266 52be 829a eb3d 12a2 9dbd
00000060: 595d 8d3e 51c5 823f 71ef 053f 8b32 71bd
00000070: f4aa 7b3d 560b 403e 73b2 0d3d bbba 5abe
00000080: 8189 9a3e 405c 05be e8b9 5c3d 1756 c53e
00000090: 3aaf f83e 42ba 0c3e d538 643f 3705 c1bd
000000a0: 9514 103f 99a9 6f3d c5da 1c3f 825e abbe
000000b0: b7a4 833e d99a 343e d778 b2be 7dd2 fc3d
000000c0: bdca 923e 364c d93e 53b3 ba3e 1cb2 b13e
000000d0: b79f 81bb 540f 803e 37c7 85bd ac85 e33d
000000e0: a2b2 02bf 8b12 c13e 413c 1c3d 38dd 543e
000000f0: c236 3c3d 2a68 213d 85bc cc3e 0eea f73e
00000100: 16bd aa3d 72f9 f6bc 016d 25ba 33bb 103d
00000110: d2c3 c6bd 6c68 ce3d 9897 babd 245d bdbd
00000120: 58d8 f63c ccaa 0e3d 00f0 bf3a 3055 313d
00000130: b000 4c3d b3dd 8bbc 062e 8fbd 368c e33c
00000140: 168c f3bd fef6 b43d 1cd1 efbd ec9d 52bd
00000150: e211 a8bd 4042 bf3b f064 aa3c dc11 abbd
00000160: fcb3 d73d 30ec 30bd 104a 6f3c 477e dcbd
00000170: fc31 a1bc 57c7 e3bc d4c7 173d 0f27 d9bd
00000180: af28 06be 26a8 bdbd e4d3 e7bd cd3f 21bd
00000190: 2ef2 473d 0ffb 913d e75f 91bd 64f0 453d
000001a0: 0445 f9bd c1db 923d ce08 e8bc 7005 aabc
000001b0: 0f40 a03c c213 c43d 9823 dfbd 8c9c 5b3d
000001c0: 1555 cc3d bc14 803d dc18 373d 2adf 9b3d
000001d0: a0a7 0abd f236 bebd e4eb b53c 795e 923d
000001e0: e26d 06be d84f c9bd 18c3 cdbc f450 97bd
000001f0: 4c4a 1d3d da8a 14be 6c1f c93d d373 12be
00000200: a36a f8bc 6535 bb3e 6bde 3f3f 7409 213f
00000210: c04c 773d a7e1 923f 0607 f33e 588c 533e
00000220: c0d6 e13e 049e 093f 3f38 c23e 9112 7a3e
00000230: 08ef 07bf ed60 49bf fda0 983d 6755 d93e
00000240: a7a9 4d3b 5620 4e3f ee14 923e 09e5 863e
00000250: b8a6 983d 8f62 c0bd 0165 1f3e 438e 93bd
00000260: d6df 743e 0e14 833f 5dfc 5f3f 9304 4cbe
00000270: 607c bd3e 9a91 84be 966c 663e f886 473d
00000280: daf0 693e d596 b53c f351 523e 9c05 0b3f
00000290: 243c bf3e 9bf6 803e 2e56 5b3f 804f fb3d
000002a0: ef66 4b3f 83c5 903d 0205 e93e ef9f ae3d
000002b0: 9a6a 073e 1324 d93e 5059 03bf 98cf 9d3e
000002c0: 9d15 b93e 24a4 8c3e 19a5 b33e 26a3 ad3d
000002d0: c7e9 703e 1bed f43e 6349 08be 2881 14bd
000002e0: 9cdb 45bf 83bb e93e 7f11 9e3d 97d2 233f
000002f0: 8a38 6c3e daef 0fbd e4ad 543e c1e6 643e
00000300: 0ac0 123e 69de eb3e bbe6 503f 12de 073f
00000310: 61c6 dc3c 1356 703f 7e6e 9e3e 6a57 4e3e
00000320: e34b c03e 759b 3a3f d6c2 c63e 3c3c 523e
00000330: f853 dabe bb9f 1cbf e527 c73c 1915 c63e
00000340: 464c d7be 5f29 183f 7e29 b63e 9794 be3d
00000350: e185 123e 830e 73be 57eb 9d3e 2d06 afbe
00000360: 368b f63e 3977 823f 1021 663f 0d6f dabd
00000370: 7075 5b3e 9adf 8ebe c0b1 c73d 425b 04be
00000380: 4cf4 973e 9251 953d 222b 063c 9029 1a3f
00000390: a18c 1a3f c7fc 7a3e dac9 8b3f cb99 4d3e
000003a0: 88fc 503f eef9 403d 3ffb 003f b4c1 4c3d
000003b0: 55d0 933e da81 813e c130 9dbe 5bc4 d73e
000003c0: c334 083f dea6 f53e 0ab0 063f 409f 8a3e
000003d0: 9d9f d63e 7fe7 003f 9449 94bd 76fd f8bd
000003e0: 6572 a0be a934 a43e e71a 02bd 9039 413f
000003f0: cae3 6e3e a03d 0a3d f90e f63e 6b98 103f

fc2.bias f4 [64]
-0.07975971 -0.14706285 0.0730142 -0.12519671 -0.15332139 -0.02146087 0.45908841 -0.14671794
0.22185844 -0.66969466 0.01569264 -0.08747022 0.38576984 -0.093793206 -0.16704187 0.48539406
-0.21892816 -0.069634475 -0.6278336 0.3806254 0.2698732 0.046030708 -0.20296778 0.5046003
-0.4667557 -0.08354773 -0.2485938 -0.056320734 -0.05039505 -0.09543075 -0.03816468 -0.008679096
0.6796051 0.20447211 0.7387976 0.14796296 -0.21377903 -0.06335042 -0.13385347 -0.097483374
-0.36370823 0.28818887 0.0297763 0.2666436 0.713721 -0.50941235 1.1936638 -0.07202209
0.062922716 0.2269651 0.007634759 -0.065800615 -0.14266215 -0.0042612557 -0.23010758 0.61054754
-0.22940183 -0.37159216 -0.15871602 0.78460294 -0.23006947 0.49293292 0.016136473 0.37004066
00000000: 0f59 a3bd a597 16be 7888 953d 9133 00be
00000010: 4800 1dbe b5ce afbc a30d eb3e 3a3d 16be
00000020: dc2e 633e 1c71 2bbf da8d 803c 9623 b3bd
00000030: a083 c53e a716 c0bd 060d 2bbe 9285 f83e
00000040: b42e 60be 859c 8ebd b4b9 20bf 55e1 c23e
00000050: d22c 8a3e b28a 3c3d c9d6 4fbe 7c2d 013f
00000060: 9afa eebe 131b abbd 608f 7ebe 92b0 66bd
00000070: 0a6b 4ebd 3271 c3bd 9152 1cbd c432 0ebc
00000080: 9afa 2d3f 2361 513e d721 3d3f 9a83 173e
00000090: e4e8 5abe ddbd 81bd e210 09be 5da5 c7bd
000000a0: f737 babe 7e8d 933e 6ded f33c 8385 883e
000000b0: 6bb6 363f d968 02bf fac9 983f 5180 93bd
000000c0: a0dd 803d 8a69 683e 002d fa3b 79c2 86bd
000000d0: 0716 12be 01a2 8bbb 52a1 6bbe d84c 1c3f
000000e0: 50e8 6abe 5441 bebe 7486 22be bddb 483f
000000f0: 5597 6bbe b461 fc3e a330 843c f875 bd3e

fc3.weight f4 [4, 64]
-0.22488244 0.09816958 -0.33614492 -0.24856058 -0.35541236 -0.369585 1.8813707 -0.29445836
2.171673 -0.86897016 -0.26097155 0.08627126 1.1612763 -0.3345343 -0.28626028 1.8761747
0.23578031 -0.2849323 -0.8645815 2.4062512 1.7645663 -0.41769508 -0.32618147 -0.32875603
-0.93199486 -0.8300615 -0.31799272 -0.252569 -0.31609878 0.08811195 -0.32250413 -0.3248549
0.4991572 -0.62983423 2.0597 -0.6990389 -0.30218223 0.0062032063 -0.31122392 -0.33585006
-0.4604302 2.1180673 -0.51481205 -0.6929419 1.3697193 1.2508157 1.5772655 -0.38029495
-0.1534201 -0.8341149 -0.3629091 0.05665883 -0.26492468 -0.39568213 -0.24837191 2.1629748
-0.2649237 -0.9383338 -0.29857185 1.3088441 -0.36463755 -0.28146356 0.18957493 -0.7400515
-0.28573272 0.032419458 -0.40838346 -0.39050168 -0.32304558 -0.24862735 1.7237333 -0.39999208
1.8995405 -0.8234831 -0.41687456 0.011334955 1.0104567 -0.3505885 -0.2108104 2.4460592
-0.24736373 -0.4104129 -0.84952873 2.190901 1.3230745 -0.29607347 -0.35628995 -0.7119089
-0.8350479 -0.9384448 -0.43212295 -0.2670066 -0.3780024 -0.045451477 -0.39785975 -0.31396887
0.20399863 -0.38665605 2.199347 -0.57499355 -0.36913297 -0.14233664 -0.4041282 -0.27898827
-0.13415709 2.1170673 -0.09212426 -1.0429429 0.9599708 0.17678022 1.8402419 -0.3899877
0.37650758 -0.08509694 -0.4083296 0.1895879 -0.5654692 -0.30783617 -0.39771298 2.198326
-0.44395632 -1.014989 -0.43580982 1.4205502 -0.43303347 0.5921629 0.249834 -1.0792853
-0.2613765 -0.08536734 -0.18696901 -0.46714252 -0.3169858 -0.20708041 2.271677 -0.47742677
1.5177572 -0.81179637 -0.08175111 0.06523799 1.3775467 -0.21311119 -1.0497807 1.7376492
-1.0585923 -0.3192928 -1.0438285 2.3300226 1.75587 -0.23911288 -0.44051406 -0.7804767
-0.74614304 -0.7222959 -0.4291251 -0.592691 -0.28303608 -0.05307117 -0.3007191 -0.17130776
1.227227 -1.0233903 1.9213763 -0.5329503 -0.3086364 0.016716272 -0.39875793 -0.47930002
-0.90869606 2.6418471 -0.58479583 0.37794995 1.0713794 1.0459797 1.2624278 -0.39695016
0.7781425 -0.31287074 -0.20092028 0.76807666 -0.31200597 -0.37063867 -0.43983346 2.3026147
-0.25033873 -0.79081917 -0.33294797 1.5571083 -0.4537144 -1.0935606 -0.99180114 -0.89672285
-0.4435786 0.11195415 -0.30219787 -0.31938112 -0.3847725 -0.42510292 2.2491791 -0.30116537
2.4595006 -0.9368033 -0.34695223 -0.008028309 0.96607906 -0.33368397 -0.3136307 1.2588475
0.73999023 -0.44351777 -1.0341666 2.7291217 1.9521575 -0.43634453 -0.309464 -0.05562953
-1.0313773 -0.6909286 -0.31179628 -0.45850796 -0.3902261 0.08638622 -0.39851445 -0.4288788
0.087123975 -0.45379815 2.2705479 -0.69135016 -0.31502867 0.10561738 -0.3241028 -0.47075802
-0.17641018 2.0691228 -0.5672637 -0.47252753 1.1808232 -0.34702572 1.8166728 -0.4437712
-0.6196516 -0.86731213 -0.2839602 0.620776 -0.3119317 -0.3459204 -0.26374716 2.278881
-0.347683 -1.1368564 -0.25431937 1.2673191 -0.29523334 -0.6056187 0.14766027 -0.5372799
00000000: 9547 66be 220d c93d 301b acbe aa86 7ebe
00000010: 9cf8 b5be 3f3a bdbe c1d0 f03f 3fc3 96be
00000020: b1fc 0a40 d474 5ebf 109e 85be fdae b03d
00000030: b4a4 943f 1448 abbe b590 92be 7e26 f03f
00000040: 6570 713e a5e2 91be 3755 5dbf 0500 1a40
00000050: 4fdd e13f 21dc d5be 4201 a7be b652 a8be
00000060: 3797 6ebf e97e 54bf f1cf a2be b950 81be
00000070: b3d7 a1be 0a74 b43d 431f a5be 6253 a6be
00000080: 8891 ff3e d13c 21bf 20d2 0340 37f4 32bf
00000090: a1b7 9abe 4444 cb3b be58 9fbe 8af4 abbe
000000a0: 82bd ebbe 6a8e 0740 b9ca 03bf a464 31bf
000000b0: f652 af3f bb1a a03f d6e3 c93f 05b6 c2be
000000c0: 291a 1dbe 8e88 55bf 39cf b9be 1713 683d
000000d0: 35a4 87be d996 cabe 3555 7ebe 2e6e 0a40
000000e0: 14a4 87be a536 70bf 69de 98be 3488 a73f
000000f0: c6b1 babe fe1b 90be ee1f 423e 0474 3dbf
00000100: 8f4b 92be 44ca 043d a317 d1be d6ef c7be
00000110: 3b66 a5be 2b98 7ebe 4ba3 dc3f c3cb ccbe
00000120: 2524 f33f cacf 52bf 9570 d5be 3fb6 393c
00000130: a556 813f 5680 b3be aede 57be 3c8c 1c40
00000140: eb4c 7dbe a421 d2be b77a 59bf b937 0c40
00000150: 815a a93f f196 97be a36b b6be a93f 36bf
00000160: b3c5 55bf eb3d 70bf 383f ddbe 17b5 88be
00000170: 8889 c1be 542b 3abd 46b4 cbbe 87c0 a0be
00000180: 04e5 503e c8f7 c5be 1ac2 0c40 c732 13bf
00000190: fffe bcbe b2c0 11be e4e9 cebe 8dd7 8ebe
000001a0: 7a60 09be 087e 0740 a5ab bcbd 277f 85bf
000001b0: a5c0 753f e005 353e 0c8d eb3f 78ac c7be
000001c0: 9ac5 c03e 4e47 aebd 9410 d1be 5523 423e
000001d0: 97c2 10bf b49c 9dbe 09a1 cbbe 60b1 0c40
000001e0: 3e4e e3be 29eb 81bf 7722 dfbe 97d4 b53f
000001f0: 90b6 ddbe fd97 173f 7cd4 7f3e 0526 8abf
00000200: 24d3 85be 12d5 aebd ce74 3fbe 4e2d efbe
00000210: f64b a2be e30c 54be 2863 1140 4871 f4be
00000220: de45 c23f e3d1 4fbf 206d a7bd 7f9b 853d
00000230: 7353 b03f d239 5abe 375f 86bf 4a6b de3f
00000240: f47f 87bf 597a a3be 2c9c 85bf 171f 1540
00000250: 59c0 e03f 02da 74be 0f8b e1be 52cd 47bf
00000260: 3b03 3fbf 62e8 38bf 49b6 dbbe 99ba 17bf
00000270: 1bea 90be 2861 59bd dbf7 99be 4d6b 2fbe
00000280: c615 9d3f 74fe 82bf a9ef f53f 6e6f 08bf
00000290: 9705 9ebe 90f0 883c 002a ccbe d066 f5be
000002a0: 4ea0 68bf 0614 2940 2eb5 15bf a882 c13e
000002b0: f622 893f aae2 853f 3c97 a13f 0d3d cbbe
000002c0: 5934 473f 9830 a0be 0cbe 4dbe aca0 443f
000002d0: 3fbf 9fbe 5ac4 bdbe da31 e1be 0a5e 1340
000002e0: 662c 80be 2073 4abf 2878 aabe 534f c73f
000002f0: 414d e8be cbf9 8bbf aee6 7dbf a18f 65bf
00000300: bc1c e3be 3848 e53d aeb9 9abe ec85 a3be
00000310: e700 c5be 17a7 d9be 8df2 0f40 5932 9abe
00000320: 7568 1d40 57d2 6fbf b9a3 b1be 2b89 03bc
00000330: f550 773f a0d8 aabe 3494 a0be ea21 a13f
00000340: 0070 3d3f c314 e3be 925f 84bf eea9 2e40
00000350: 4ce0 f93f 8d68 dfbe 1172 9ebe cadb 63bd
00000360: 2c04 84bf b2e0 30bf c3a3 9fbe 8ec1 eabe
00000370: b7cb c7be 42eb b03d 160a ccbe 0196 dbbe
00000380: 0e6e b23d 3b58 e8be a850 1140 53fc 30bf
00000390: 704b a1be ed4d d83d cdf0 a5be 3207 f1be
000003a0: dfa4 34be 826c 0440 3238 11bf 21ef f1be
000003b0: 3725 973f 5bad b1be bc88 e83f fb35 e3be
000003c0: 7da1 1ebf 2b08 5ebf 3b63 91be 2deb 1e3f
000003d0: 83b5 9fbe 7b1c b1be de09 87be 30d9 1140
000003e0: 8203 b2be 8384 91bf 2636 82be 8337 a23f
000003f0: d328 97be d409 1bbf 4134 173e 2d8b 09bf

fc3.bias f4 [4]
-0.39051235 0.08588171 0.62453455 -0.26255324
00000000: 3cf1 c7be c0e2 af3d 7fe1 1f3f 616d 86be
